…
 Layer (type)                   Output Shape         Param #     Connected to                     
==================================================================================================
 input_1 (InputLayer)           [(None, 1)]          0           []                               
                                                                                                  
 input_2 (InputLayer)           [(None, 1)]          0           []                               
                                                                                                  
 embedding (Embedding)          (None, 1, 15)        9495        ['input_1[0][0]']                
                                                                                                  
 embedding_1 (Embedding)        (None, 1, 15)        272895      ['input_2[0][0]']                
                                                                                                  
 flatten_1 (Flatten)            (None, 15)           0           ['embedding[0][0]']              
                                                                                                  
 flatten_2 (Flatten)            (None, 15)           0           ['embedding_1[0][0]']            
                                                                                                  
 input_3 (InputLayer)           [(None, 9)]          0           []                               
                                                                                                  
 concatenate (Concatenate)      (None, 39)           0           ['flatten_1[0][0]',              
                                                                  'flatten_2[0][0]',              
                                                                  'input_3[0][0]']                
                                                                                                  
 dense (Dense)                  (None, 512)          20480       ['concatenate[0][0]']            
                                                                                                  
 activation (Activation)        (None, 512)          0           ['dense[0][0]']                  
                                                                                                  
 dropout (Dropout)              (None, 512)          0           ['activation[0][0]']             
                                                                                                  
 dense_1 (Dense)                (None, 512)          262656      ['dropout[0][0]']                
                                                                                                  
 activation_1 (Activation)      (None, 512)          0           ['dense_1[0][0]']                
                                                                                                  
 dropout_1 (Dropout)            (None, 512)          0           ['activation_1[0][0]']           
                                                                                                  
 dense_2 (Dense)                (None, 512)          262656      ['dropout_1[0][0]']              
                                                                                                  
 dot (Dot)                      (None, 1, 1)         0           ['embedding[0][0]',              
                                                                  'embedding_1[0][0]']            
                                                                                                  
 embedding_2 (Embedding)        (None, 1, 1)         633         ['input_1[0][0]']                
                                                                                                  
 embedding_3 (Embedding)        (None, 1, 1)         18193       ['input_2[0][0]']                
                                                                                                  
 activation_2 (Activation)      (None, 512)          0           ['dense_2[0][0]']                
                                                                                                  
 add (Add)                      (None, 1, 1)         0           ['dot[0][0]',                    
                                                                  'embedding_2[0][0]',            
                                                                  'embedding_3[0][0]']            
                                                                                                  
 dropout_2 (Dropout)            (None, 512)          0           ['activation_2[0][0]']           
                                                                                                  
 flatten (Flatten)              (None, 1)            0           ['add[0][0]']                    
                                                                                                  
 dense_3 (Dense)                (None, 1)            513         ['dropout_2[0][0]']              
                                                                                                  
 add_1 (Add)                    (None, 1)            0           ['flatten[0][0]',                
                                                                  'dense_3[0][0]']                
                                                                                                  
==================================================================================================
Total params: 847,521
Trainable params: 847,521
Non-trainable params: 0
…
